data.pth (torch, 4951 bytes, 6 tensors)

l1.weight f4 [8, 52]
00000000: 1429 2bbe 767b f03d c9c2 d5bd 772f 32be
00000010: f4e5 bbbe ff49 cd3e 5bcb 093f 2a48 d43e
00000020: 24b7 753f 8e81 8abe 2f56 183f cf00 85bd
00000030: 8ab7 9ebe 519a 143f 7314 63be 4339 813e
00000040: 5395 77bc 9ded 043f f7f4 fbbe a86c 37be
00000050: 2b07 fcbe 4dfe fbbe 44a6 0fbe 9ac5 283f
00000060: b104 a8bd 7ed1 89be 9134 243d 3bcd 8bbd
00000070: 9943 c53e 269a 653f 0e4d 05be 6327 ab3e
00000080: 5efb 493e 01fb 203f c1f9 103f 1981 0c3f
00000090: 3ea7 64be 5d4d 023f 63a0 c73e 18de 0c3f
000000a0: 7997 8dbe 6718 f3bd 679a f8be a83a 18be
000000b0: faaf 443b 09e1 71be fe05 093f 0a51 a83e
000000c0: 8084 ed3e a0f2 113f d1f4 2e3d 93c4 0b3f
000000d0: ea31 a9bd 4378 383d 9c68 1b3e b96f 5fbe
000000e0: 5d3e dfbd d53d 27bd 01dc e93e 3104 fb3e
000000f0: ed5b 15be 0021 71be cd8d 95be ffa9 883e
00000100: bdfd b33e 5f10 f83e e8f2 3ebe 0567 ea3e
00000110: 0996 453e 061a 1abe 7302 d8be 4542 3bbe
00000120: d8fb d7be 6ef5 d7be 0260 bdbe d7fe 0b3f
00000130: 7d49 0c3e 74b6 f33e d2d2 5e3e 6d50 8c3e
00000140: aef0 b93e 0702 8ebe 57b4 16be 94d2 8a3d
00000150: 2d37 9abb d040 9f3e 664b 0f3f 1b8d e83e
00000160: 0674 9f3e 3ca1 85be 5cc0 9c3e d503 ba3e
00000170: 03ff f83e 8e72 803e ed08 d8be 811c 20be
00000180: e201 993e 80e7 86be 6d21 25be 623f d2bd
00000190: 6dac 873d b8a2 083f 3f1f 6a3d 5456 053f
000001a0: 3f9a 0f3e c9a7 1c3e a943 9e3e 1c17 f4bd
000001b0: 4c59 22be e0f7 41be 8413 4c3f 165b 85bd
000001c0: d151 96be 2627 55be 97b4 c3be 9476 003e
000001d0: ebdb d43e a95e eabc 8e5c 98bd d586 453f
000001e0: f07c ad3e 542d 70be f728 95be d5b2 063e
000001f0: 1c45 abbe 5495 a0be 9530 b6be efa3 18bd
00000200: daf1 243e a9f2 903e 4f5d c03d a1ef 2d3e
00000210: 7229 0f3f 0938 d8be 4160 62bd 3f93 88bc
00000220: cf5e 703d 987f d7bd b7c5 02be a531 14bd
00000230: d239 c13e b663 cbbe 4f43 ff3e 1474 8abd
00000240: fc8b f73e 20c9 9e3e 7354 ad3e 4641 b03e
00000250: 4d87 953e 4f56 26be 76ce a2be e5bc 42be
00000260: 72cf e53c a145 863b bada 413e 2dbd 1e3d
00000270: cc43 be3e 80e0 993e f6f3 963e 9bc4 f73e
00000280: 9a7d 0a3f e6d9 c3be 2421 cbbe f100 28be
00000290: f4eb 04bf 6701 233f 24dd a2be 3cda b83e
000002a0: 706e e13e 1a5c 37bd 3bef 1c3f ed4a 0ebf
000002b0: 00d4 473e 5966 d2be 7bd0 363f 73c0 723e
000002c0: 2e11 443f 7faf 303f 2884 6f3e c259 40be
000002d0: 53eb c63e 91e0 043f b22a a73e 0665 ce3e
000002e0: 16b8 b9be 6619 9abe 0d10 a13e 0d62 72be
000002f0: 2320 09be e353 003d e43a 283b 990a 2bbe
00000300: 6a1a a23e a779 c5be ca93 88be 82c8 bdbd
00000310: ef43 0d3f fc44 883e 1be8 2d3f 56f5 df3e
00000320: d129 7d3e 1be5 fc3e 838f debe 1403 c0be
00000330: 52d7 423d 36e0 6cbe 142b 973e 73fd 073d
00000340: 3b60 fa3e 9bfa a63e 112c ccbd be69 a93e
00000350: 075c 4bbd 6550 fa3e ab44 fa3e 18a9 273e
00000360: 3a64 873f 74f8 893e 4f8b 0a3f 02f0 06bc
00000370: 3bc5 bcbe 74e1 c73d 5d68 e13e 3ce4 133f
00000380: e469 f33d 3076 2e3f 3e6d 753e 0c63 ce3e
00000390: 9c0e 943e f11f 6a3e fb78 4f3c 8573 193d
000003a0: a154 003e 0e1a c7be 466d 66be f900 cbbd
000003b0: 1a1c d03e b94f 2f3f 4a00 7a3e f9a1 813e
000003c0: 0515 b63e e595 19bd a926 24bd f3b1 383d
000003d0: 020d fbbe ec1c 393f ed23 5a3e 2f9f 12bd
000003e0: be0c f6be 1fee f9bd 247a 333f de74 d23e
000003f0: 6445 fcbd e9cd a63e 060b 3f3f 67d3 d63e
-0.16714889 0.11742298 -0.10437543 -0.17400919 -0.36698878 0.40095517 0.5382592 0.41461307
0.95982575 -0.27051967 0.59506506 -0.06494295 -0.30999404 0.5804797 -0.2217577 0.25239
-0.015111285 0.5192507 -0.4921033 -0.17912543 -0.4922422 -0.49217454 -0.14028269 0.65926516
-0.0820402 -0.26917642 0.040089194 -0.06826254 0.38528135 0.89688337 -0.13017675 0.33428487
0.19724795 0.62883 0.56631094 0.5488449 -0.22329423 0.50899297 0.38989553 0.5502639
-0.27654627 -0.11869889 -0.485553 -0.14866126 0.0030012117 -0.23621 0.5352477 0.32874328
0.46390152 0.5701084 0.042713944 0.54596823 -0.082614735 0.045036566 0.15176624 -0.21819963
-0.10900567 -0.040830452 0.45675662 0.49026635 -0.14585848 -0.23547745 -0.29209748 0.26692197
0.35154524 0.4844999 -0.18647349 0.45781723 0.19295515 -0.1504899 -0.4218937 -0.18286999
-0.4218433 -0.42179435 -0.3698731 0.5468573 0.13699909 0.47600138 0.21760109 0.2740511
0.36316437 -0.27735922 -0.14717232 0.06778446 -0.0047062845 0.31104136 0.55974424 0.45420155
0.31143206 -0.26099575 0.3061551 0.3633105 0.48632059 0.25087398 -0.4219431 -0.15635873
0.2988425 -0.26348495 -0.16126032 -0.102659956 0.066246845 0.5337329 0.057158705 0.5208485
0.14023684 0.1529838 0.30910996 -0.1191847 -0.15854377 -0.18942213 0.7971728 -0.06511514
-0.29359296 -0.20815715 -0.38223717 0.12545234 0.41574034 -0.02860959 -0.074395284 0.7715886
0.33884382 -0.23454791 -0.29132816 0.13154157 -0.33451164 -0.31363928 -0.3558394 -0.037265714
0.16107884 0.28310135 0.09392797 0.16985942 0.55922616 -0.4223025 -0.055267576 -0.016671775
0.058684167 -0.105223835 -0.12770735 -0.036180157 0.37739426 -0.3972451 0.4985604 -0.067604214
0.48348987 0.3101282 0.33853492 0.344248 0.2920479 -0.16243862 -0.31798142 -0.1901737
0.02805302 0.004097656 0.18931094 0.03875463 0.371611 0.30054092 0.29483002 0.48392186
0.540979 -0.3825218 -0.39673722 -0.16406609 -0.51922536 0.63674015 -0.31809342 0.36104
0.4402957 -0.04476557 0.61302537 -0.5558308 0.19514465 -0.4109371 0.71411866 0.23706226
0.76588714 0.69017786 0.23390257 -0.1878424 0.38851413 0.5190516 0.3264976 0.4031145
-0.3627326 -0.30097502 0.31457558 -0.23670216 -0.13391165 0.03133 0.0025669867 -0.16703261
0.31660777 -0.38569376 -0.26675254 -0.092667595 0.55181783 0.2661513 0.6793229 0.43741864
0.24722983 0.49393544 -0.43468866 -0.37502348 0.047568627 -0.23132405 0.29525054 0.033200692
0.48901543 0.32613072 -0.099693425 0.33088487 -0.04964831 0.4888946 0.48880515 0.16373098
1.0577462 0.26947367 0.5411882 -0.008235933 -0.36869225 0.09759799 0.44024935 0.57770133
0.118854314 0.6814909 0.23967454 0.40309942 0.28917396 0.22863747 0.012663121 0.037463684
0.12532283 -0.38887066 -0.22502622 -0.09912295 0.4064644 0.6848102 0.24414173 0.25318888
0.35562912 -0.037496466 -0.04007593 0.04509158 -0.49033362 0.72309756 0.21302767 -0.03579634
-0.48056597 -0.12203621 0.70108247 0.41104788 -0.12317923 0.32578972 0.74626195 0.41958162

l1.bias f4 [8]
00000000: 8e05 fc3e bf03 d83e c333 373f 0cf1 513f
00000010: c806 6a3f 6b01 643f 9cce 043f 97d0 bb3e
0.49222988 0.42190358 0.7156336 0.82008433 0.914166 0.89064664 0.5187776 0.3668258

l2.weight f4 [8, 8]
00000000: e4e0 ddbe 01a1 b53e 256f 923f fb3b 763f
00000010: ff80 f03d 1c8e ab3f 3f8c 743f 5ebe 98bd
00000020: 7e3a a23f 0b4a 243f fb43 d83e 3aec 90bf
00000030: 37cc 933f 2158 d23b e59c 0a3f e2d3 bbbe
00000040: 57d6 0a3e 224f 02bf ae25 c9be 0d49 e43e
00000050: fde6 613f 1437 743f 3119 b2bf 221c 50bf
00000060: 7a50 c33d e2a1 d6be 1d37 ea3e 4a76 363e
00000070: 65f5 413f e7dd c53f 9b1a 9dbf f051 96bf
00000080: 6744 73be ef54 73bf 488b 06bf 486f 593f
00000090: ac1f 8a3f b991 a2be 087e 0bbe d5cd d23e
000000a0: b156 53bf e6c3 1d3f 861c 413f e434 9a3f
000000b0: dce2 8bbe 088b 483f 8c9e 7d3f 6e89 853f
000000c0: 2b08 ed3e 40b1 69bf 2de7 b33d 670b 6ebe
000000d0: 8f1e 833f 9707 b9bf 9d25 673f 7026 9e3f
000000e0: 70cc b93d 86f7 8e3d 15e6 90be 5000 c63c
000000f0: 2632 c3be 4b4f 8f3e bad5 9dbe 2f30 2c3d
-0.4333564 0.354744 1.1440169 0.9618527 0.11743354 1.3402743 0.955265 -0.07458185
1.26741 0.6417548 0.42239365 -1.1322091 1.1546696 0.006419197 0.5414565 -0.3668509
0.13558327 -0.50902 -0.3928656 0.44586983 0.88243085 0.9539654 -1.3913938 -0.8129293
0.09536834 -0.41920382 0.45745173 0.17818561 0.7576507 1.5458344 -1.2273744 -1.1743755
-0.23756562 -0.95051473 -0.52556276 0.84935427 1.0790915 -0.31751803 -0.13622296 0.41172662
-0.82554156 0.6162704 0.7543415 1.2047391 -0.27321517 0.78337145 0.9907005 1.0432565
0.46295294 -0.9128609 0.08784328 -0.23246537 1.0243701 -1.4455441 0.9029177 1.235548
0.090721965 0.06980805 -0.2830054 0.02417007 -0.38124198 0.27990183 -0.30827123 0.04203814

l2.bias f4 [8]
00000000: af50 8f3e 9a63 713e 9bcb 483f 967a 0b3f
00000010: c179 133f c58e 173e e0b7 833e 5bfe cebe
0.27991244 0.23573151 0.7843568 0.54483926 0.57607657 0.14800556 0.25726223 -0.40428433

l3.weight f4 [7, 8]
00000000: f961 20bf 1e4e 6b3f 680e 07bf 7818 72bf
00000010: 0cd9 babe abfc 5ebf 4eb4 50bf 59a5 75be
00000020: 1857 e5be 4cfd 373e 78dc 493f 26e6 6f3f
00000030: b713 213e 5c42 6ebf f1b6 90be c7d8 04bd
00000040: b6ea 153f cb84 b1bf 208b 30bf e435 82bf
00000050: 9e1f 79bf 6017 753f fa67 86bf f4b9 9dbc
00000060: 353a 65bf 610d 683e c040 2d3e 9d72 b3be
00000070: 74bd 033f 0f43 3fbf d53e 773f a9f7 693e
00000080: 9d15 3d3f 09e7 9e3e 0d4f 88be 0afa e83d
00000090: b09c a2bf 3fbb febd 6b12 95be d523 273e
000000a0: d85c 123e a9da b6bf 1cca 3f3f 1e3b 1b3f
000000b0: a288 5c3f 29fe 393e fc33 7bbf 5be9 3dbe
000000c0: 5431 8f3d 7902 3dbf 4f9f dbbe a789 97bf
000000d0: fff1 043f f27e ec3e f191 243f 4814 5d3e
-0.62649494 0.9191607 -0.5275636 -0.94568586 -0.3649372 -0.8710429 -0.81525123 -0.23988856
-0.4479301 0.17967719 0.78852034 0.93710554 0.15730177 -0.93070006 -0.28264573 -0.032433297
0.58561265 -1.386865 -0.6896229 -1.0172696 -0.9731387 0.9573879 -1.0500481 -0.019253708
-0.8954194 0.22661354 0.16919231 -0.3504838 0.5146096 -0.747117 0.9658025 0.22848381
0.73861104 0.3103564 -0.2662281 0.11375816 -1.2704067 -0.12438058 -0.29115614 0.16322263
0.1429323 -1.428548 0.7491777 0.6063708 0.86145985 0.1816336 -0.98126197 -0.1854605
0.069918305 -0.738319 -0.4289498 -1.1838883 0.51931757 0.46190602 0.6428519 0.21589768

l3.bias f4 [7]
00000000: 5ef9 1f3e cebb 7bbe ec0e 223e 5a83 063e
00000010: 247a 8dbe 5cb3 413d 5949 413c
0.1562247 -0.2458336 0.15826005 0.13136044 -0.27632248 0.04729019 0.011797273
